models/checkpoint_critic.pth (torch_old, 61136 bytes, 7 tensors)

fcs1.weight f4 [128, 33]
0.4231845 -0.07337208 -0.37080085 0.17228995 0.05194857 -0.14191203 -0.18391626 0.017731609
-0.12719804 -0.5129352 0.23176096 -0.008038456 0.15606883 -0.07659972 0.16650985 0.33664802
0.2534482 0.029838609 -0.2012358 -0.041329585 -0.010110075 0.048469804 0.15442702 -0.42368776
0.014300686 -0.18412866 -0.2662509 -0.14557244 -0.2265673 -0.057713807 0.079532176 -0.07924938
-0.4580413 -0.048080076 -0.23179948 -0.0209136 0.023901094 0.16685703 0.053772807 0.157424
0.0002753909 0.47083023 0.44960278 -0.19649747 -0.16241802 -0.0086811995 -0.2758511 0.12167783
-0.03759548 -0.01685984 -0.16287316 0.24018213 -0.034497134 -0.08676053 -0.054788247 0.09558263
-0.28236625 0.20924622 -0.021692697 0.20335637 -0.02273703 -0.042785943 0.0664128 0.055410616
-0.07585931 -0.4925295 -0.06181175 -0.09570147 0.057099923 0.0069946977 0.18740377 -0.10330217
-0.250417 -0.19239847 -0.10988877 -0.21725097 0.20898831 0.04796844 -0.08463812 0.13974622
-0.022549111 -0.24646246 -0.022515882 0.16658804 0.012151808 0.11212912 -0.011889419 0.07230771
-0.03734195 -0.0146009205 -0.15847631 -0.31925184 0.18930915 0.53647107 0.3052839 -0.032480437
-0.5613739 -0.030925028 -0.84295624 -0.111789815 -0.18561928 -0.27725816 0.07167363 0.41797894
-0.25737533 -0.08945454 -0.17247503 0.8115679 -0.16069475 0.06769724 0.037625276 -0.2369942
0.39017728 0.44803014 -0.17563939 0.22356357 0.070230655 0.39974445 -0.011340898 -0.074301936
-0.04592872 0.051479895 0.19667502 0.074637555 -0.21063766 -0.27118132 0.0037844698 0.22004952
0.05906699 -0.06925027 0.0094843805 0.28202245 -0.20878774 -0.3476853 0.36998203 0.04058087
-0.10020971 -0.10400563 0.09723961 -0.11275648 0.062103953 -0.275374 0.035951395 -0.003073856
0.031541537 0.03557108 0.1293745 -0.08666797 0.1345616 -0.020225717 0.013995174 -0.06317106
0.033865288 -0.03686908 0.0114236595 0.08401676 0.034748923 -0.10366078 0.23910372 -0.50349396
-0.14931798 0.0033519939 0.4679754 0.021108672 -0.42289606 -0.20535545 0.026063902 -0.08893504
-0.057782117 0.12361494 -0.09614909 -0.24043705 -0.24245036 -0.011635404 0.11594879 -0.089062564
-0.06579339 0.10678027 0.117722355 0.2115872 -0.22818998 0.19471699 -0.2582417 -0.27995434
-0.13906726 0.030041343 -0.09422974 0.0035369575 -0.0128438715 0.10245124 0.040179934 0.006406805
0.30018696 0.079233006 -0.07902194 -0.3460263 -0.058479983 2.11312 0.4362942 -0.29343912
0.14786926 -0.034826573 -0.07066549 -0.13101237 -0.0071550095 0.1877419 0.15102147 0.87168735
0.013228045 -0.042293422 0.21662807 -0.11463284 0.0069005922 0.1518183 -0.20882332 0.08538722
0.057533078 0.029658316 -0.26422453 -0.4275139 0.008572976 -0.3149635 -0.018634202 -0.031941075
-0.19768392 0.46398342 -0.07035138 -0.0876056 -0.43280995 0.05900935 0.33931336 0.22600862
-0.12130076 -0.08545234 0.020285452 -0.06737466 -0.14756897 -0.010198446 0.14817524 0.34026983
0.09192172 -0.056332648 -0.032420024 -0.04277473 -0.0070111062 -0.0055174762 0.1991465 0.04201843
0.07090396 -0.12437348 0.04181476 -0.10981164 -0.061358254 0.098266795 -0.08518436 -0.047202263
00000000: a4ab d83e 1a44 96bd 9cd9 bdbe c76c 303e
00000010: 06c8 543d 6351 11be 8b54 3cbe e141 913c
00000020: 3440 02be b94f 03bf bf52 6d3e bab3 03bc
00000030: 82d0 1f3e 50e0 9cbd 8f81 2a3e 215d ac3e
00000040: f6c3 813e 1970 f43c c210 4ebe 3649 29bd
00000050: baa4 25bc 4688 463d 1e22 1e3e 9aed d8be
00000060: 6d4d 6a3c 398c 3cbe 0a52 88be f110 15be
00000070: 4201 68be 5065 6cbd c4e1 a23d 804d a2bd
00000080: 6484 eabe 9def 44bd d85c 6dbe 0053 abbc
00000090: 3acc c33c 92dc 2a3e e040 5c3d c233 213e
000000a0: 5762 9039 a910 f13e 5632 e63e a236 49be
000000b0: e950 26be 973b 0ebc 5b3c 8dbe 3a32 f93d
000000c0: b8fd 19bd a61d 8abc 39c8 26be 4ef2 753e
000000d0: de4c 0dbd 81af b1bd a469 60bd d3c0 c33d
000000e0: 4f92 90be a444 563e e2b4 b1bc a73c 503e
000000f0: 0243 babc 5040 2fbd 6f03 883d 3ef6 623d
00000100: 205c 9bbd d42c fcbe 512e 7dbd 22ff c3bd
00000110: 9ce1 693d c733 e53b c6e6 3f3e 1790 d3bd
00000120: a836 80be 1b04 45be 5d0d e1bd 0a77 5ebe
00000130: 0801 563e 8e7a 443d c056 adbd a219 0f3e
00000140: eab8 b8bc a860 7cbe 3a73 b8bc 0e96 2a3e
00000150: 6018 473c f4a3 e53d d6cb 42bc 1116 943d
00000160: dff3 18bd b338 6fbc 9d47 22be fa74 a3be
00000170: 42da 413e 2b56 093f 2c4e 9c3e 350a 05bd
00000180: 33b6 0fbf 7c56 fdbc fbcb 57bf 0ff2 e4bd
00000190: fb12 3ebe c8f4 8dbe a0c9 923d 5601 d63e
000001a0: b3c6 83be f133 b7bd 4b9d 30be eac2 4f3f
000001b0: 2a8d 24be daa4 8a3d f61c 1a3d 9cae 72be
000001c0: 51c5 c73e 3564 e53e d0da 33be d9ed 643e
000001d0: 17d5 8f3d 4eab cc3e 2dcf 39bc 9d2b 98bd
000001e0: c11f 3cbd 95dc 523d 2d65 493e 93db 983d
000001f0: 66b1 57be 47d8 8abe de04 783b a954 613e
00000200: 3af0 713d 16d3 8dbd 6064 1b3c 3f65 903e
00000210: 74cc 55be cf03 b2be 496e bd3e 2038 263d
00000220: c03a cdbd e700 d5bd 9025 c73d dfec e6bd
00000230: b760 7e3d d2fd 8cbe c541 133d bf72 49bb
00000240: b331 013d fbb2 113d c07a 043e fa7e b1bd
00000250: 84ca 093e 67b0 a5bc 044c 653c d45f 81bd
00000260: 54b6 0a3d 0804 17bd 4d2a 3b3c fb10 ac3d
00000270: e354 0e3d 1a4c d4bd 9bd7 743e fbe4 00bf
00000280: d0e6 18be 20ad 5b3b 799a ef3e 18ec ac3c
00000290: d585 d8be b348 52be f783 d53c 9323 b6bd
000002a0: f1ac 6cbd d429 fd3d d0e9 c4bd 2135 76be
000002b0: e844 78be 6ca2 3ebc 8f76 ed3d 6f66 b6bd
000002c0: afbe 86bd 9daf da3d 6b18 f13d 51aa 583e
000002d0: a2aa 69be e463 473e 4238 84be 2d56 8fbe
000002e0: a667 0ebe 4319 f63c 86fb c0bd 4dcc 673b
000002f0: 1a6f 52bc f5d1 d13d b793 243d 2df0 d13b
00000300: 1bb2 993e ea44 a23d 41d6 a1bd 5c2a b1be
00000310: b588 6fbd 5c3d 0740 f461 df3e a73d 96be
00000320: 0a6b 173e 4fa6 0ebd 12b9 90bd 1b28 06be
00000330: 9274 eabb 6a3f 403e 5fa5 1a3e e726 5f3f
00000340: 71ba 583c de3b 2dbd c0d3 5d3e 9fc4 eabd
00000350: 5d1e e23b 4276 1b3e c8d5 55be 7fdf ae3d
00000360: cea7 6b3d fff5 f23c 7048 87be 1ae3 dabe
00000370: ab75 0c3c e542 a1be c1a6 98bc a5d4 02bd
00000380: a76d 4abe 3c8f ed3e 6214 90bd 916a b3bd
00000390: 4499 ddbe cab3 713d 7bba ad3e ce6e 673e
000003a0: 886c f8bd a301 afbd ad2d a63c bafb 89bd
000003b0: 521c 17be 6217 27bc 40bb 173e d937 ae3e
000003c0: 7441 bc3d 10bd 66bd dcca 04bd 8e34 2fbd
000003d0: 6cbd e5bb f2cb b4bb 0fed 4b3e 841b 2c3d
000003e0: 1836 913d 86b7 febd f445 2b3d ede4 e0bd
000003f0: cb52 7bbd 1a40 c93d 2375 aebd 2957 41bd

fcs1.bias f4 [128]
0.13941398 0.16372198 -0.36194924 0.13153246 0.45440874 -0.3051947 -0.5905264 -0.20145808
0.15237331 0.31889367 -0.4552471 -0.48657277 -0.29834747 0.046747513 -0.05121428 -0.3175592
0.13039711 -0.26858476 -0.06812782 -0.13930869 0.09757672 -0.2656368 0.0675228 -0.16959341
0.16424584 -0.33493632 -0.11991344 -0.25255978 -0.56531453 -0.79904306 -0.48570424 -0.1479474
-0.28371057 -0.15108791 0.042615604 -0.2656409 -0.38240683 0.10932652 -0.36017144 -0.20780063
-0.3265363 0.42146733 -0.74745214 -0.07803158 0.16977587 -0.09602776 -0.5452717 0.22466446
-0.5575842 -0.2190012 0.009178161 -0.6162373 -0.5575334 -0.36546248 0.22396272 -0.3354045
-0.45432916 -0.401826 -0.67992043 -0.14449793 0.08321035 -0.20415148 -0.291986 -0.3564078
-0.27524456 -0.19486171 -0.49982592 -0.24877258 -0.63571817 -0.6590602 0.045386765 -0.26638576
-0.29899088 -0.42793688 0.0035766421 0.027045319 -0.2205684 -0.6861551 -0.010822024 -0.10622391
-0.3007654 -0.46964324 0.20340654 -0.8121349 -0.29827273 -1.1964906 -0.7990054 -0.20386107
-0.28120053 0.019869408 0.23514555 -0.31144887 -0.0732756 -0.31485742 -0.07141189 0.00041685026
-0.15635185 -0.01285227 -0.56549823 -0.06119507 -0.21151233 0.43768457 -0.3114502 -0.6798297
-0.7588859 0.053871345 0.41944993 0.041886892 -0.24854247 -0.2053353 0.20226035 0.2278319
-0.6496919 0.17628679 -0.82727784 -0.65840113 -0.51724994 -0.30122823 -0.0010165011 -0.010602004
0.047174674 0.075227626 -0.4041183 -0.7916284 -0.31465682 -0.18735479 0.044741422 -0.62600845
00000000: 8ac2 0e3e bca6 273e 6951 b9be 72b0 063e
00000010: 43a8 e83e 7b42 9cbe bd2c 17bf 074b 4ebe
00000020: c007 1c3e 0846 a33e 2616 e9be 1120 f9be
00000030: 00c1 98be 527a 3f3d 11c6 51bd 1f97 a2be
00000040: d286 053e f183 89be 9986 8bbd f0a6 0ebe
00000050: 4ed6 c73d 8c01 88be 6549 8a3d e5a9 2dbe
00000060: 1030 283e c67c abbe 2d95 f5bd 844f 81be
00000070: 74b8 10bf 168e 4cbf 3aae f8be 867f 17be
00000080: 8342 91be cab6 1abe b38d 2e3d 1602 88be
00000090: d4ca c3be 95e6 df3d 6468 b8be b0c9 54be
000000a0: c42f a7be 91ca d73e 0659 3fbf 05cf 9fbd
000000b0: bad9 2d3e 34aa c4bd ed96 0bbf 710e 663e
000000c0: d7bd 0ebf da41 60be ff5f 163c bac1 1dbf
000000d0: 82ba 0ebf e61d bbbe 7c56 653e 23ba abbe
000000e0: d59d e8be 23bc cdbe 440f 2ebf 44f7 13be
000000f0: 306a aa3d 160d 51be 307f 95be 157b b6be
00000100: dbec 8cbe d489 47be 2fe9 ffbe 3dbe 7ebe
00000110: 6dbe 22bf 2bb8 28bf 79e7 393d b763 88be
00000120: 5515 99be 8b1a dbbe 1966 6a3b 258e dd3c
00000130: afdc 61be dca7 2fbf dc4e 31bc ec8b d9bd
00000140: ecfd 99be 1475 f0be ce49 503e 13e8 4fbf
00000150: 34b7 98be 9b26 99bf 9e8b 4cbf f5c0 50be
00000160: 84f9 8fbe 2bc5 a23c ffc9 703e 3a76 9fbe
00000170: 8511 96bd fe34 a1be 6640 92bd b28c da39
00000180: b31a 20be 5492 52bc 7ec4 10bf afa7 7abd
00000190: b096 58be 3118 e03e 6776 9fbe 5209 2ebf
000001a0: 5946 42bf 33a8 5c3d 24c2 d63e 9791 2b3d
000001b0: eb81 7ebe 6b43 52be 561d 4f3e c44c 693e
000001c0: 3552 26bf 8684 343e 7bc8 53bf fa8c 28bf
000001d0: 7e6a 04bf 963a 9abe 1e3c 85ba 07b4 2dbc
000001e0: 3b3a 413d f110 9a3d 98e8 cebe 29a8 4abf
000001f0: b31a a1be efd9 3fbe c842 373d 1742 20bf

fc2.weight f4 [64, 132]
-0.100321576 0.43481842 0.25299597 0.28248557 -0.025127169 -0.6633675 -0.017169023 0.25274435
-0.024910333 0.38998914 -0.017091876 0.40518424 -0.47244498 0.3170943 0.113580525 -0.12451436
0.077301 -0.11267768 0.5986688 0.13004051 0.00248964 0.07459497 -0.47155288 -0.08606155
-0.3606505 -0.3523397 0.2190089 0.12377885 -0.4283755 -0.08845495 0.62140006 0.171753
-0.13989498 0.14074284 -0.48225027 0.35079283 -0.56595767 -0.13141257 0.2621021 0.41635168
-0.3895298 -0.13495052 -0.2799563 0.24294224 -0.048386533 -0.2229299 0.13202491 -0.99877846
-0.41372034 -0.5202213 0.21805333 0.43471017 -0.44106972 -0.11125865 -0.10485608 0.2968182
-0.52375454 -0.09625908 0.05545426 0.22903009 -0.20623074 -0.014259664 0.045600634 0.37593716
0.06714065 0.3653441 -0.18386036 0.093878426 -0.5104799 0.07550651 -0.14512697 -0.1860885
-0.32587227 0.0014820781 -0.01239008 -0.7448125 -0.43126115 -0.47579226 0.4494133 -0.26504117
0.40413114 -0.0903861 -0.0885454 0.18984774 0.33837354 -1.0551147 -0.11993073 -0.28482512
-0.12826207 -0.06342932 -0.22072949 -0.644727 -0.0057503795 -0.43545315 0.10702854 -0.11648906
-0.15235546 0.3550916 0.117680416 -0.018777164 -0.35042274 0.4548434 -0.33542624 -0.13108769
0.1833675 -0.045371536 0.21896632 -1.1129024 -0.12905067 0.46099243 -0.7131798 -0.26373565
-0.41753682 -0.41081598 -0.40936792 -0.045810048 0.6090144 0.14494993 0.28497827 0.032749556
-0.541615 -0.2383196 0.11870364 0.057427704 -0.429276 -0.05325384 -0.66156346 -0.09334681
0.043199822 -0.0021448007 -0.08522624 -0.095442906 0.124914035 -0.057699755 0.14119577 -0.01954847
0.24614151 -0.3489648 -0.14146703 -0.28160638 0.105211034 0.14294922 -0.063265316 0.053157914
-0.32834587 0.1874913 0.49769434 0.14266568 0.14089434 0.08948389 -0.038371176 0.01548737
-0.33647037 0.0113799255 -0.25180984 0.24684662 -0.03932204 -0.3717153 -0.37957826 -0.018158717
0.26379347 -0.11766951 0.16473405 0.02980306 0.31539142 -0.123934336 0.09776866 -1.4410523
-0.21919656 -0.044117607 0.2123127 -0.002713833 0.26783612 0.06345493 0.5542298 -0.13486728
-0.18702021 -0.092495576 -0.36293668 -0.20295954 -0.5022167 0.291562 -0.419973 0.038243573
0.521438 0.05026899 0.291527 0.0898569 -0.18434246 0.056370515 0.3416209 0.11093598
-0.0051023923 0.0011871883 0.0040615723 -0.20488833 0.13296944 -0.19359249 0.039271645 0.44587326
-0.048534553 -0.08434735 0.0007868434 0.077202894 0.3203993 0.036981728 -0.12702572 -0.01764833
-0.18333068 0.1777745 -0.0324886 0.18585715 -0.39418912 -0.20003028 0.25987828 0.55183
-0.31003112 0.28265753 -0.10518334 0.13712801 0.120225966 -0.18122777 -0.0955921 -0.044629253
-0.11769745 0.16390195 0.077933915 -0.15887043 -0.05474769 -0.048609477 -0.015651226 0.13167703
-0.5388816 0.13706505 -0.05780911 0.57395065 0.079350345 -0.3133643 -0.118142374 0.16610089
-0.26047093 -0.2035579 -0.057304915 -0.07151598 -0.2749064 0.25089243 -0.4681452 0.13836153
0.15820415 0.09332261 -0.024951885 0.08985779 0.18891908 0.11926323 -0.34483355 0.22704346
00000000: 6675 cdbd 85a0 de3e b088 813e f3a1 903e
00000010: 7ed7 cdbc 74d2 29bf 0da6 8cbc b567 813e
00000020: c110 ccbc a8ac c73e 4304 8cbc 4f74 cf3e
00000030: 4fe4 f1be 2f5a a23e e89c e83d 6301 ffbd
00000040: fd4f 9e3d 8ec3 e6bd 5c42 193f 5729 053e
00000050: 3a29 233b 3fc5 983d 616f f1be 0a41 b0bd
00000060: 2fa7 b8be df65 b4be de43 603e c47f fd3d
00000070: 0954 dbbe de27 b5bd 1314 1f3f 05e0 2f3e
00000080: a140 0fbe e41e 103e 82e9 f6be 1e9b b33e
00000090: 9ae2 10bf 0491 06be 3f32 863e 0c2c d53e
000000a0: 7370 c7be 7830 0abe 6f56 8fbe dac5 783e
000000b0: f530 46bd bc47 64be 8a31 073e f2af 7fbf
000000c0: 27d3 d3be 392d 05bf 5f49 5f3e 5592 de3e
000000d0: e4d3 e1be 93db e3bd c9be d6bd 8ef8 973e
000000e0: c714 06bf 7b23 c5bd 0224 633d dd86 6a3e
000000f0: 272e 53be 5ea1 69bc bbc7 3a3d d67a c03e
00000100: 0981 893d 620e bb3e e445 3cbe 5543 c03d
00000110: d0ae 02bf 28a3 9a3d 2a9c 14be fc8d 3ebe
00000120: bbd8 a6be 4a42 c23a c3ff 4abc 08ac 3ebf
00000130: 43ce dcbe 0b9b f3be 8019 e63e 7ab3 87be
00000140: 47ea ce3e 591c b9bd 4a57 b5bd 7267 423e
00000150: 4c3f ad3e 000e 87bf 3e9e f5bd 99d4 91be
00000160: 2257 03be 3be7 81bd e906 62be d40c 25bf
00000170: ae6d bcbb b7f3 debe c731 db3d d191 eebd
00000180: 1203 1cbe 91ce b53e 6e02 f13d 91d2 99bc
00000190: 9c6a b3be 3ce1 e83e fdbc abbe da3b 06be
000001a0: b1c4 3b3e 81d7 39bd b538 603e 9673 8ebf
000001b0: dc25 04be 3307 ec3e f492 36bf 5c08 87be
000001c0: 63c7 d5be 7956 d2be ac98 d1be 51a3 3bbd
000001d0: 5ee8 1b3f c16d 143e ace8 913e 6624 063d
000001e0: 48a7 0abf 0e0a 74be e51a f33d 5039 6b3d
000001f0: 10ca dbbe b320 5abd 395c 29bf 9d2c bfbd
00000200: 4cf2 303d c98f 0cbb 188b aebd 9277 c3bd
00000210: eed2 ff3d 9456 6cbd a095 103e 1d24 a0bc
00000220: 850c 7c3e 84ab b2be bcdc 10be b62e 90be
00000230: e278 d73d 4861 123e 3f91 81bd 1dbc 593d
00000240: f31c a8be b8fd 3f3e cbd1 fe3e f416 123e
00000250: 9b46 103e 5443 b73d 182b 1dbd bdbe 7d3c
00000260: d845 acbe de72 3a3c 38ed 80be 5cc5 7c3e
00000270: 2610 21bd 7851 bebe 1558 c2be 97c1 94bc
00000280: f00f 873e b6fc f0bd 0bb0 283e 8c25 f43c
00000290: fc7a a13e 49d1 fdbd ef3a c83d 6774 b8bf
000002a0: 1075 60be aab4 34bd 8068 593e 90da 31bb
000002b0: d121 893e a9f4 813d 01e2 0d3f a61a 0abe
000002c0: 3a82 3fbe 526e bdbd d6d2 b9be a0d4 4fbe
000002d0: 4691 00bf 9d47 953e b306 d7be 4ba5 1c3d
000002e0: f67c 053f dbe6 4d3d 0743 953e e506 b83d
000002f0: 45c4 3cbe c5e4 663d efe8 ae3e 6732 e33d
00000300: f831 a7bb 6e9b 9b3a f016 853b 3fce 51be
00000310: 2429 083e 1c3d 46be 4edb 203d 8049 e43e
00000320: 2bcc 46bd 4ebe acbd 2b44 4e3a 8d1c 9e3d
00000330: 610b a43e 277a 173d 0813 02be 3b93 90bc
00000340: 0abb 3bbe 850a 363e c412 05bd 5651 3e3e
00000350: 28d3 c9be bdd4 4cbe c40e 853e bb44 0d3f
00000360: 66bc 9ebe 7db8 903e 5d6a d7bd 496b 0c3e
00000370: 0839 f63d c693 39be cac5 c3bd 2acd 36bd
00000380: 5c0b f1bd ead5 273e d19b 9f3d eeae 22be
00000390: 1d3f 60bd bb1a 47bd 0037 80bc 58d6 063e
000003a0: 25f4 09bf c85a 0c3e 3fc9 6cbd 6eee 123f
000003b0: 6f82 a23d 4971 a0be a1f4 f1bd 5a16 2a3e
000003c0: 725c 85be 7b71 50be 8fb8 6abd f876 92bd
000003d0: 88c0 8cbe f974 803e bab0 efbe a5ae 0d3e
000003e0: 4500 223e ed1f bf3d e567 ccbc 5c07 b83d
000003f0: 0174 413e 4840 f43d 068e b0be 157e 683e

fc2.bias f4 [64]
-0.2781674 0.46739838 -0.1662618 -0.21088867 0.30605516 -1.0550635 0.35171148 0.30749005
0.44077617 0.11297711 -0.27163315 -0.31135538 0.14219162 0.68750787 -0.8274913 0.2485339
-0.70701057 0.5088737 0.10132097 -0.8116141 -0.5720354 -0.66783637 -0.2867378 0.66463554
-0.082401246 0.75948524 0.39847976 -0.14290577 -0.56894714 0.8210079 0.44028816 0.66960156
-0.015736017 -0.8954304 -0.36304766 -0.24529086 0.51433283 -0.4669316 0.97027445 0.5530928
0.34914494 0.22838943 -0.4985857 0.02278931 -0.36256832 0.65713805 -0.34996423 0.13650212
0.38469806 0.34729525 -0.22448339 0.3848883 -0.6380048 -0.230522 -0.68813556 0.13689098
0.75837314 -0.07510182 0.21064937 0.5527733 0.079600215 0.08575875 0.52853876 -0.15489028
00000000: f56b 8ebe d74e ef3e 8940 2abe 33f3 57be
00000010: 43b3 9c3e 520c 87bf 8713 b43e 566f 9d3e
00000020: 6aad e13e 8b60 e73d 8013 8bbe f969 9fbe
00000030: ae9a 113e 8400 303f 78d6 53bf ac7f 7e3e
00000040: a5fe 34bf 8c45 023f 5e81 cf3d f1c5 4fbf
00000050: e970 12bf 53f7 2abf 4ccf 92be 8e25 2a3f
00000060: fcc1 a8bd a06d 423f 8a05 cc3e e455 12be
00000070: 85a6 11bf 932d 523f 736d e13e 026b 2b3f
00000080: d2e8 80bc ed3a 65bf 62e1 b9be 872d 7bbe
00000090: 51ab 033f a911 efbe e863 783f 7d97 0d3f
000000a0: 20c3 b23e ebde 693e a046 ffbe a6b0 ba3c
000000b0: 8ea2 b9be 333a 283f 832e b3be 36c7 0b3e
000000c0: 25f7 c43e afd0 b13e f9de 65be 1410 c53e
000000d0: 4854 23bf f60d 6cbe a729 30bf 262d 0c3e
000000e0: be24 423f fcce 99bd 78b4 573e 8d82 0d3f
000000f0: 7005 a33d 49a2 af3d 514e 073f 8f9b 1ebe

fc3.weight f4 [32, 64]
-0.38690168 0.16109654 -0.09584018 0.2735782 0.091521494 -0.07632 -0.023986896 0.045899738
-0.09186836 -0.13308364 -0.14298022 -0.045753032 0.44584775 0.13160808 -0.08508536 -0.19844574
-0.061673865 0.17587687 -0.2021132 -0.21558876 0.02015447 -0.26123345 -0.15313438 -0.015288009
0.39370048 0.091682784 0.0067968788 -0.2552607 0.06333301 0.03286225 -0.17948377 0.0060944115
0.40397617 -0.32557052 0.062647216 -0.12495853 0.07106172 -0.20278212 0.21194288 -0.11299834
0.106036685 0.13481852 -0.48871246 0.008014964 -0.28474626 0.6618889 0.29656127 -0.25694808
0.14985332 0.05326128 -0.1321279 0.04498264 -0.2424784 0.18310511 -0.23071344 0.11072489
0.08204907 -0.122949846 0.4316811 0.061072007 -0.0154468315 0.23818572 -0.07558188 -0.3401116
-0.12109064 0.033276413 0.025968298 -0.04833944 -0.012581687 -0.16674414 -0.02218288 0.03476382
-0.18845202 -0.019180069 -0.028108044 -0.009386062 0.030992948 -0.06532065 -0.059318572 -0.13792467
0.009623142 0.26316556 -0.03871734 -0.015626645 -0.00505099 -0.027622793 0.050335854 -0.23264435
-0.111739114 0.098278105 0.019506278 -0.16687976 -0.0058418806 -0.16104311 0.05140968 0.07848061
-0.03254079 -0.004854168 0.013763081 -0.087244935 -0.071095206 -0.09541062 0.14213406 0.1420639
0.03594397 0.20182027 -0.11104125 -0.09096007 0.21632145 -0.010092988 0.016339526 -0.02311253
0.032939874 -0.08887427 0.093635045 -0.009194812 0.036700964 -0.093115516 -0.17825836 0.13515475
-0.10948749 -0.13970403 -0.13361025 -0.017659996 0.1330671 -0.02074766 -0.005174411 -0.054623578
-0.281201 -0.02070515 0.03846483 -0.06415858 0.059524193 0.43830708 -0.047348417 -0.26511848
-0.096875496 0.00063431065 0.045351792 0.02752251 -0.5077351 -0.072672464 0.16557418 -0.24976045
0.095141366 -0.089469284 0.12815985 -0.013485813 0.059536964 -0.044817753 0.18205139 -0.16229197
-0.25314322 -0.2483338 -0.0527116 0.059141275 0.15276499 -0.16431822 0.17488228 0.073557466
-0.21462739 0.0085175615 0.17717436 -0.050724857 0.10632177 0.17416537 0.2693049 -0.15715052
-0.31148517 -0.42379552 0.020843225 -0.30813417 0.55243945 -0.26134926 -0.048523683 -0.34009358
0.11282323 0.12708199 -0.352874 0.08995665 -0.11972006 0.19470753 -0.16733249 -0.097787924
0.003239455 -0.16596106 0.017326206 -0.20633943 -0.1169466 0.1647887 -0.1954592 -0.34140107
0.5174764 0.019056907 0.15144327 -0.066778235 -0.62717843 -0.121310845 0.23098285 0.16416474
-0.17407544 0.09268466 0.08573777 0.26101825 -0.2421231 -0.1270329 -0.39235336 0.09910902
0.27865744 0.20096558 0.17515244 0.061228808 0.15366428 0.145359 0.106743276 0.0973997
0.1838466 -0.30587283 -0.12403443 0.025346119 0.327304 -0.34774867 0.21315777 -0.49221084
-0.03170257 0.23134258 -0.14677824 0.2704615 0.26463765 0.08591664 -0.03578015 -0.031770512
-0.13860351 0.01102248 0.066574916 0.0018114956 0.1674534 0.51294696 -0.2445862 -0.14899103
0.048096534 0.034706015 0.037771236 0.12506792 -0.122708134 0.059128653 -0.021490457 -0.5992494
0.0958986 0.3229245 -0.12613598 -0.014271314 0.24104083 -0.05462185 -0.083094165 0.06310425
00000000: fa17 c6be 7ef6 243e db47 c4bd 7112 8c3e
00000010: 9f6f bb3d a94d 9cbd 2b80 c4bc 5d01 3c3d
00000020: 7b25 bcbd 1447 08be 6869 12be 8867 3bbd
00000030: 2846 e43e 45c4 063e 3c41 aebd 5c35 4bbe
00000040: bc9d 7cbd 1119 343e c3f6 4ebe 4dc3 5cbe
00000050: fd1a a53c 64c0 85be 42cf 1cbe 8f7a 7abc
00000060: 1c93 c93e 2fc4 bb3d 5ab8 de3b 88b1 82be
00000070: bdb4 813d 919a 063d 98ca 37be a1b3 c73b
00000080: f7d5 ce3e 2eb1 a6be 2f4d 803d 42ea ffbd
00000090: cf88 913d 1ea6 4fbe 8e07 593e ac6b e7bd
000000a0: c329 d93d de0d 0a3e 8538 fabe 3251 033c
000000b0: 43ca 91be 8d71 293f e1d6 973e b38e 83be
000000c0: 2673 193e 8028 5a3d 894c 07be b73f 383d
000000d0: 424c 78be e87f 3b3e 2540 6cbe bbc3 e23d
000000e0: 5809 a83d 21cd fbbd 4e05 dd3e a426 7a3d
000000f0: b514 7dbc f5e6 733e acca 9abd 1c23 aebe
00000100: 5ffe f7bd d94c 083d 78bb d43c 94ff 45bd
00000110: 6c23 4ebc fabe 2abe dfb8 b5bc 8264 0e3d
00000120: 91f9 40be 851f 9dbc d742 e6bc ffc7 19bc
00000130: ece4 fd3c d5c6 85bd 08f8 72bd 203c 0dbe
00000140: 62aa 1d3c a3bd 863e 1396 1ebd 7303 80bc
00000150: c682 a5bb 3249 e2bc f82c 4e3d 523a 6ebe
00000160: 7ad7 e4bd 0846 c93d a1cb 9f3c 87e2 2abe
00000170: 3f6d bfbb 7ce8 24be f592 523d 71ba a03d
00000180: 7e49 05bd b60f 9fbb 8c7e 613c 79ad b2bd
00000190: 5d9a 91bd a566 c3bd 978b 113e 3379 113e
000001a0: fc39 133d f9a9 4e3e 9869 e3bd 4649 babd
000001b0: 5f83 5d3e 0f5d 25bc 78da 853c 7d56 bdbc
000001c0: f6eb 063d b703 b6bd bbc3 bf3d d6a5 16bc
000001d0: c053 163d 59b3 bebd 5c89 36be 0266 0a3e
000001e0: fa3a e0bd 930e 0fbe 20d1 08be b2ab 90bc
000001f0: be42 083e fff6 a9bc 1b8e a9bb f9bc 5fbd
00000200: 94f9 8fbe d99d a9bc 4c8d 1d3d 9365 83bd
00000210: a4cf 733d c969 e03e 6af0 41bd 9cbd 87be
00000220: a966 c6bd de47 263a cdc2 393d e376 e13c
00000230: edfa 01bf 4dd5 94bd 478c 293e 34c1 7fbe
00000240: 7ad9 c23d ac3b b7bd 563c 033e 99f3 5cbc
00000250: 08dd 733d d292 37bd ae6b 3a3e de2f 26be
00000260: fd9b 81be 374b 7ebe 1ee8 57bd 1f3e 723d
00000270: 6d6e 1c3e 0943 28be 5714 333e 4ca5 963d
00000280: 48c7 5bbe 3e8d 0b3c 326d 353e dec4 4fbd
00000290: 3abf d93d 6858 323e 55e2 893e 11ec 20be
000002a0: fc7a 9fbe bafb d8be 69bf aa3c c3c3 9dbe
000002b0: ac6c 0d3f 92cf 85be c5c0 46bd bf20 aebe
000002c0: de0f e73d c821 023e e7ab b4be 313b b83d
000002d0: ca2f f5bd 6961 473e 3559 2bbe 0945 c8bd
000002e0: 094d 543b b2f1 29be b0ef 8d3c a54a 53be
000002f0: b381 efbd 5ebe 283e 7526 48be 1fcc aebe
00000300: 5579 043f 3b1d 9c3c f213 1b3e 07c3 88bd
00000310: c48e 20bf d271 f8bd c586 6c3e cd1a 283e
00000320: d540 32be 74d1 bd3d 4997 af3d 2fa4 853e
00000330: 1eef 77be ea14 02be 8ae2 c8be abf9 ca3d
00000340: 30ac 8e3e ecc9 4d3e 295b 333e 0fcb 7a3d
00000350: 2b5a 1d3e fdd8 143e 389c da3d 7e79 c73d
00000360: 4842 3c3e 5d9b 9cbe c305 febd aaa2 cf3c
00000370: 6494 a73e 1d0c b2be 0846 5a3e 0f03 fcbe
00000380: 8eda 01bd 12e5 6c3e 094d 16be ee79 8a3e
00000390: 967e 873e 10f5 af3d 358e 12bd cc21 02bd
000003a0: 14ee 0dbe a297 343c 6e58 883d b56f ed3a
000003b0: e778 2b3e 7e50 033f ce74 7abe 1b91 18be
000003c0: df00 453d e527 0e3d 03b6 1a3d ce11 003e
000003d0: 674e fbbd e330 723d c10c b0bc 6968 19bf
000003e0: 7c66 c43d 5c56 a53e ca29 01be 3bd2 69bc
000003f0: 68d3 763e 29bb 5fbd 462d aabd cd3c 813d

fc3.bias f4 [32]
-0.9255526 1.1841835 0.84774643 0.50588644 0.9963589 1.1704556 0.91548085 1.3811508
0.7308918 -0.70716757 0.8817857 0.7533438 -0.8898231 -0.83000755 1.6930742 0.6180677
-1.2766411 -0.39749306 0.7016403 -0.5577519 -0.4184327 0.8017741 0.5588737 0.6918278
0.9434378 0.78195596 1.2727908 -1.5712895 0.11290661 -0.86797667 1.1322931 1.060261
00000000: 04f1 6cbf 5393 973f e905 593f c681 013f
00000010: 6011 7f3f 7dd1 953f f45c 6a3f 8dc9 b03f
00000020: ba1b 3b3f ef08 35bf b5bc 613f 24db 403f
00000030: 72cb 63bf 607b 54bf a8b6 d83f af39 1e3f
00000040: fa68 a3bf 3684 cbbe b39e 333f d4c8 0ebf
00000050: d03c d6be 1141 4d3f 5912 0f3f a01b 313f
00000060: 2485 713f 442e 483f cfea a23f 0420 c9bf
00000070: 953b e73d b833 5ebf fbee 903f a2b6 873f

fc4.weight f4 [1, 32]
-0.03911471 0.08635151 0.022149296 0.03948423 0.039821915 0.04555158 0.016953306 0.17613988
0.023788575 -0.022097 0.04663179 0.021132128 -0.045054253 -0.048061647 0.2811937 0.016391153
-0.05376437 -0.0385293 0.023343641 -0.026821844 -0.05802702 0.028812513 0.020891145 0.022015894
0.031999905 0.03216368 0.115295455 -0.18929802 0.04641533 -0.023037475 0.068033986 0.027963227
00000000: bf36 20bd 0fd9 b03d 7172 b53c 37ba 213d
00000010: 4e1c 233d 4b94 3a3d a9e1 8a3c 035e 343e
00000020: 42e0 c23c c504 b5bc fa00 3f3d 491d ad3c
00000030: cf8a 38bd 4adc 44bd 9ff8 8f3e bd46 863c
00000040: 0738 5cbd e6d0 1dbd 2a3b bf3c 7cb9 dbbc
00000050: bead 6dbd 3808 ec3c e823 ab3c ad5a b43c
00000060: 5512 033d 10be 033d 0620 ec3d 57d7 41be
00000070: 001e 3e3d 16b9 bcbc 6755 8b3d 2313 e53c
