models/checkpoint_actor.pth (torch_old, 169464 bytes, 6 tensors)

fc1.weight f4 [256, 33]
0.0403236 -0.13468885 -0.1752219 0.10488781 0.03185479 0.008699284 0.05401223 -0.024474444
0.1631728 -0.055674482 -0.01898208 -0.062868915 -0.0930835 -0.012649701 -0.010255312 0.038262017
0.047926303 -0.016038205 -0.07923879 -0.1267107 0.0054154 -0.002288488 -0.027269382 -0.16939801
-0.12092502 -0.089435786 -0.07784009 -0.015606805 -0.013762357 0.031534612 0.048753712 0.028442599
-0.3657444 -0.14755104 -0.13716316 -0.022850614 0.06522909 -0.025500404 -0.07066576 -0.003918305
0.14342213 0.18363717 0.056366336 -0.026930455 -0.06410038 -0.1393754 -0.0001550026 -0.03476211
-0.08712213 -0.08995859 0.022798132 -0.002315276 0.011189128 0.060394175 -0.015831916 -0.051986948
0.12933008 -0.11627979 -0.0018126689 -0.013692025 -0.004124481 0.078011766 -0.058925427 0.015769986
0.051832296 -0.026297431 0.04464926 -0.07331942 -0.046546713 0.08237471 0.18297184 -0.02479305
0.04500694 -0.042382844 0.012605739 0.040826805 0.074986234 -0.005193984 -0.0777814 0.10987809
0.017323574 0.04270128 0.0107773105 0.022422759 0.014563535 0.01215477 0.039881125 -0.09768422
0.15281594 0.10815314 -0.044833366 -0.011837847 -0.06259895 -0.13451482 -0.22094294 0.03277698
0.07223129 -0.035798535 -1.0542382 -0.07012155 -0.096036136 0.1042875 -0.0732099 0.050651643
0.027083134 -0.10575418 -0.024509443 0.09579716 0.010421436 -0.006697256 -0.05977817 0.0412732
-0.11413461 -0.10292062 -0.054846823 0.034846272 0.016426207 -0.00044797885 -0.010278565 -0.047102913
0.11624783 -0.05371849 -0.09702483 -0.044112325 -0.07658269 0.16934575 -0.11816682 0.0035432004
-0.05549769 0.14775737 -0.044141024 -0.23638856 -0.08372826 0.15712655 0.0042427825 0.026922368
0.042201713 -0.0038861455 -0.02839261 0.047781073 0.20179637 0.25436512 -0.025179267 -0.017888179
0.027653046 0.07099306 0.10670558 0.014823228 0.04625919 -0.063427724 0.022686934 0.0030389845
-0.13214016 0.12694113 -0.12515637 0.14302522 0.06403358 -0.01611189 0.17153369 -0.097745955
0.049579848 0.01118844 0.10938895 0.05973068 0.5465751 0.13700199 0.15549411 -0.12057343
0.01996597 0.16531348 -0.06587328 0.06946908 -0.03963192 -0.04692512 0.14095841 -0.016632108
0.10068465 -0.0612807 -0.09097461 -0.23914573 -0.070772335 0.018571004 0.006621459 -0.060005028
0.0027470358 0.015063097 0.039971564 0.046387326 0.003717046 -0.06593651 -0.014002076 -0.041956432
0.030944357 0.09916847 0.023382619 -0.04011808 0.015905716 0.033234835 -0.20613874 0.0066378457
-0.035084423 0.009164923 -0.028893173 0.007503851 0.0449869 -0.056421466 -0.32691705 -0.1501082
0.0352137 0.08168288 -0.02574213 0.062229697 -0.062468424 0.013906272 0.037824966 -0.04460819
-0.16047026 -0.011173641 -0.16850342 -0.023941314 -0.08083448 0.08139244 -0.03780087 0.09098173
0.14710188 -0.11158013 0.12849101 0.0397287 0.054866873 0.012115531 0.6407202 -0.07824076
0.081353165 -0.0029465558 -0.13522947 -0.10216715 -0.0028023107 -0.13188931 0.013157649 -0.14686416
-0.038905874 0.04146282 0.049647428 -0.0013394525 -0.05226212 -0.081809096 -0.062483013 0.084726974
-0.03596774 0.0774891 0.036016744 -0.037344925 0.11218507 -0.068635 0.09042164 -0.075685866
00000000: 5c2a 253d e0eb 09be 5f6d 33be 6ccf d63d
00000010: 2b7a 023d 7187 0e3c ee3b 5d3d a17e c8bc
00000020: c516 273e ed0a 64bd 4f80 9bbc 6bc1 80bd
00000030: 90a2 bebd b140 4fbc e505 28bc a2b8 1c3d
00000040: 5f4e 443d 8e62 83bc f247 a2bd 73c0 01be
00000050: ab73 b13b 75fa 15bb 0a64 dfbc ac76 2dbe
00000060: 89a7 f7bd 1c2a b7bd a06a 9fbd afb3 7fbc
00000070: 827b 61bc 702a 013d f9b1 473d 7400 e93c
00000080: da42 bbbe 9f17 17be 8074 0cbe 3631 bbbc
00000090: d496 853d 39e6 d0bc 36b9 90bd 2065 80bb
000000a0: 40dd 123e 620b 3c3e 63e0 663d 429d dcbc
000000b0: 0f47 83bd 6db8 0ebe 3288 22b9 b762 0ebd
000000c0: 166d b2bd 363c b8bd 26c3 ba3c e3bb 17bb
000000d0: 9b52 373c e25f 773d efb1 81bc 44f0 54bd
000000e0: 1b6f 043e 1924 eebd 1397 edba 8454 60bc
000000f0: a826 87bb a2c4 9f3d ca5b 71bd 0f30 813c
00000100: 1a4e 543d b66d d7bc 24e2 363d 7e28 96bd
00000110: c4a7 3ebd 12b4 a83d f85c 3b3e cb1a cbbc
00000120: 3259 383d a299 2dbd 4d88 4e3c 023a 273d
00000130: 6292 993d 4c32 aabb db4b 9fbd c407 e13d
00000140: 2bea 8d3c 8ae7 2e3d 5193 303c efaf b73c
00000150: e59b 6e3c cd24 473c 645a 233d aa0e c8bd
00000160: c87b 1c3e 657f dd3d 31a3 37bd 87f3 41bc
00000170: e133 80bd 41be 09be de3e 62be 2841 063d
00000180: 00ee 933d 7ca1 12bd 47f1 86bf e39b 8fbd
00000190: 98ae c4bd af94 d53d 12ef 95bd 1978 4f3d
000001a0: 73dd dd3c a695 d8bd 07c8 c8bc 4d31 c43d
000001b0: acbe 2a3c a874 dbbb f4d9 74bd 160e 293d
000001c0: 68bf e9bd 0cc8 d2bd 10a7 60bd f7ba 0e3d
000001d0: 4190 863c b4de eab9 6d67 28bc fcee 40bd
000001e0: 5813 ee3d eb07 5cbd f4b4 c6bd 20af 34bd
000001f0: 63d7 9cbd f968 2d3e 7201 f2bd 0a35 683b
00000200: 8c51 63bd b54d 173e 38cd 34bd d80f 72be
00000210: b979 abbd c8e5 203e 0a07 8b3b 4c8c dc3c
00000220: b4db 2c3d b4ae 7ebb 9e97 e8bc 16b6 433d
00000230: b5a3 4e3e 253c 823e c044 cebc 3b8a 92bc
00000240: a488 e23c cf64 913d 7588 da3d 20dd 723c
00000250: 477a 3d3d 65e6 81bd f3d9 b93c b329 473b
00000260: c04f 07be dbfc 013e fe28 00be 3475 123e
00000270: 0a24 833d 15fd 83bc 87a6 2f3e 082f c8bd
00000280: 3d14 4b3d b84f 373c 5007 e03d 28a8 743d
00000290: 59ec 0b3f 404a 0c3e d939 1f3e 34ef f6bd
000002a0: ad8f a33c f047 293e 92e8 86bd ce45 8e3d
000002b0: 1555 22bd 8e34 40bd 6757 103e 0f40 88bc
000002c0: c133 ce3d 7901 7bbd e550 babd 9ee2 74be
000002d0: 16f1 90bd 3822 983c d3f8 d83b d5c7 75bd
000002e0: 9d07 343b 35cb 763c 39b9 233d a300 3e3d
000002f0: af99 733b b909 87bd f768 65bc 82da 2bbd
00000300: 057f fd3c d718 cb3d e88c bf3c db52 24bd
00000310: b44c 823c 4021 083d 0916 53be 4982 d93b
00000320: afb4 0fbd 7928 163c 60b1 ecbc dde2 f53b
00000330: 2f44 383d 321a 67bd ac61 a7be f7b5 19be
00000340: 3e3c 103d 5b49 a73d 29e1 d2bc 91e4 7e3d
00000350: e4de 7fbd 22d7 633c 5aee 1a3d 14b7 36bd
00000360: 5152 24be a611 37bc 298c 2cbe 9320 c4bc
00000370: 8c8c a5bd 14b1 a63d 16d5 1abd a154 ba3d
00000380: e0a1 163e 2084 e4bd 2693 033e 90ba 223d
00000390: 16bc 603d 3880 463c 3d06 243f b13c a0bd
000003a0: 7d9c a63d 011b 41bb 9879 0abe 033d d1bd
000003b0: f9a6 37bb fe0d 07be 2e93 573c 8f63 16be
000003c0: c45b 1fbd ebd4 293d 1a5b 4b3d 9190 afba
000003d0: ce10 56bd 878b a7bd 30ee 7fbd 5685 ad3d
000003e0: e952 13bd 9bb2 9e3d 4b86 133d fef6 18bd
000003f0: 49c1 e53d 8290 8cbd fb2e b93d 3101 9bbd

fc1.bias f4 [256]
0.13487965 0.19037323 0.0809087 0.25647944 0.054973956 -0.20147984 -0.05144728 -0.06434336
0.08455627 0.12866424 0.015275239 -0.1358963 0.20384748 -0.08961463 0.13078126 0.0024188997
-0.12308534 -0.116931625 0.17914416 -0.10710767 0.016774997 0.12998973 0.09938682 0.09963627
0.05781674 -0.099105656 0.04728698 -0.009191479 0.030213194 0.12966087 0.022918997 -0.25537765
-0.055581048 -0.09450226 0.15059626 -0.04749806 0.13369843 0.107555754 -0.06116817 0.044793308
-0.047086205 -0.14583296 0.22766441 -0.045511425 0.08574924 -0.16245247 0.06756368 0.13488337
0.25165388 0.046490476 -0.11013238 0.18246639 -0.060066007 -0.04026525 -0.039608255 0.2511033
0.055325076 0.09209961 -0.047603276 0.20316865 0.045875464 0.02664852 -0.11451757 0.08488006
-0.12943576 -0.094109654 -0.019589752 0.08813062 0.07047598 0.096869454 -0.055776447 0.13526441
0.032326326 -0.46656832 0.23038138 0.07594625 0.08124263 0.021803793 0.07577429 -0.17181711
0.19037057 0.12612128 0.12867934 0.117446944 0.224487 -0.09155338 0.29203355 0.06711544
0.22096986 0.09395728 0.1927484 0.07495955 0.07677919 -0.20629747 -0.09231523 0.11040536
0.32748482 -0.072020985 0.15125108 0.078344 0.10811335 0.04114773 0.11640791 -0.27934384
-0.23000814 0.1466358 0.004017949 0.18755507 0.12206043 -0.055650264 0.1782558 0.24034524
-0.17998919 0.04957805 0.09960464 -0.061721027 -0.042682804 -0.17445986 0.04884427 -0.018214354
0.22822896 0.057792068 0.04316007 0.084919155 -0.114890814 0.08830018 0.11092833 0.10260035
-0.0049516945 0.22521506 0.05944859 0.009678809 -0.0777572 0.19723642 0.009320607 0.11136422
-0.32602736 0.14488955 -0.06873705 0.018518714 0.23614562 -0.11215401 0.07221482 -0.138987
0.15860538 -0.060409132 0.08412962 0.01830176 -0.011024666 0.12283046 0.08790152 -0.08995515
0.14266212 0.12808403 0.17648831 0.08372815 0.07430265 -0.2401457 0.029725278 -0.11835733
0.09980289 -0.007140931 -0.15661013 -0.20618813 0.13187115 0.09459471 0.25108364 0.016114788
-0.08840033 0.1912557 0.056240566 0.16003166 0.22953221 0.23831834 0.13803452 0.118130885
0.23929587 -0.14557399 0.2098821 -0.05194712 -0.021194207 0.07558102 -0.04473247 -0.15518266
0.13214646 -0.116709456 -0.030108178 -0.16733445 0.050383903 0.30798152 0.004897343 0.27679485
0.12287779 0.09713376 0.25529194 0.04131022 -0.022332614 -0.04107757 -0.038282588 -0.1101735
-0.16513182 0.018486608 0.13459504 0.09620186 0.116043545 0.04302027 0.12301909 0.08303551
-0.09620683 0.0711866 -0.020595431 -0.10005788 0.19244446 0.009117226 0.08123227 0.22797512
0.14637254 0.058212392 0.12853809 0.13670537 -0.11406743 -0.11252361 -0.08240173 -0.14985143
0.17004618 -0.13092326 -0.07910055 0.1347488 -0.048157044 0.02601741 -0.037336536 0.10848552
-0.18834282 -0.1770262 0.17158262 -0.049621258 -0.029873798 0.07838319 0.03106792 0.024583006
0.07298506 -0.15437211 0.13736925 -0.040401578 0.10780455 0.16647169 0.09047627 0.018884348
0.18167691 -0.089976706 0.16833682 -0.076287396 0.060770053 -0.013462754 -0.045334343 0.07616443
00000000: e41d 0a3e 33f1 423e 76b3 a53d 4651 833e
00000010: 5f2c 613d bb50 4ebe 62ba 52bd 74c6 83bd
00000020: d62b ad3d 8fc0 033e ff44 7a3c 6628 0bbe
00000030: 65bd 503e e087 b7bd 86eb 053e 6786 1e3b
00000040: 2b14 fcbd d979 efbd 9171 373e 445b dbbd
00000050: b86b 893c 071c 053e 518b cb3d 1a0e cc3d
00000060: 3fd1 6c3d e8f7 cabd feaf 413d db97 16bc
00000070: a981 f73c d2c5 043e 9fc0 bb3c dcc0 82be
00000080: f4a8 63bd 678a c1bd e835 1a3e 538d 42bd
00000090: 3ee8 083e 3146 dc3d 7a8b 7abd 3079 373d
000000a0: 77dd 40bd 3c55 15be dc20 693e 306a 3abd
000000b0: 4c9d af3d f159 26be d45e 8a3d de1e 0a3e
000000c0: c7d8 803e cc6c 3e3d 168d e1bd 78d8 3a3e
000000d0: c607 76bd 2ded 24bd 443c 22bd 9d90 803e
000000e0: 8c9c 623d b89e bc3d a7fb 42bd 710b 503e
000000f0: e9e7 3b3d ff4d da3c 3088 eabd 99d5 ad3d
00000100: cf8a 04be 90bc c0bd b07a a0bc d47d b43d
00000110: b655 903d 7e63 c63d d875 64bd c182 0a3e
00000120: 9c68 043d 0be2 eebe 19e9 6b3e b589 9b3d
00000130: 8962 a63d de9d b23c 8d2f 9b3d d3f0 2fbe
00000140: 81f0 423e f025 013e 84c4 033e 0688 f03d
00000150: ecdf 653e 5780 bbbd 6c85 953e d273 893d
00000160: ec45 623e ad6c c03d d65f 453e 6484 993d
00000170: 683e 9d3d a53f 53be c40f bdbd 351c e23d
00000180: 17ac a73e bd7f 93bd 90e1 1a3e d272 a03d
00000190: 886a dd3d 868a 283d 4567 ee3d 2806 8fbe
000001a0: 4187 6bbe b227 163e 00a9 833b 700e 403e
000001b0: d2fa f93d 88f1 63bd b088 363e 101d 763e
000001c0: 164f 38be 5a12 4b3d 84fd cb3d 30cf 7cbd
000001d0: 2ad4 2ebd 9ba5 32be ee10 483d 4536 95bc
000001e0: dab4 693e 60b7 6c3d 9dc8 303d 18ea ad3d
000001f0: e04b ebbd bad6 b43d 642e e33d 2220 d23d
00000200: d341 a2bb c79e 663e 5d80 733d de93 1e3c
00000210: 2b3f 9fbd 58f8 493e 76b5 183c ed12 e43d
00000220: 0fed a6be ed5d 143e 03c6 8cbd 8fb4 973c
00000230: 28d0 713e 00b1 e5bd 5de5 933d 9c52 0ebe
00000240: 7369 223e 916f 77bd 264c ac3d 93ed 953c
00000250: cda0 34bc 898e fb3d b605 b43d 683a b8bd
00000260: 0516 123e 7628 033e 5ab9 343e aa79 ab3d
00000270: fd2b 983d c1e8 75be 6d82 f33c 5465 f2bd
00000280: 7565 cc3d 79fe e9bb 685e 20be fb22 53be
00000290: 3b09 073e dfba c13d 098e 803e 2903 843c
000002a0: 3b0b b5bd 89d8 433e 825c 663d 57df 233e
000002b0: 7e0a 6b3e b909 743e ec58 0d3e 9bee f13d
000002c0: fa09 753e 5911 15be 55eb 563e 81c6 54bd
000002d0: 799f adbc 39ca 9a3d 6539 37bd 34e8 1ebe
000002e0: 6751 073e 5e05 efbd 6da5 f6bc b959 2bbe
000002f0: 5a5f 4e3d c1af 9d3e e479 a03b 0eb8 8d3e
00000300: 5aa7 fb3d 11ee c63d a0b5 823e e834 293d
00000310: e3f2 b6bc f440 28bd 34ce 1cbd a5a2 e1bd
00000320: 5118 29be 3a71 973c 48d3 093e 7b05 c53d
00000330: 3da8 ed3d 0636 303d 6ff1 fb3d 850e aa3d
00000340: 1608 c5bd 48ca 913d c0b7 a8bc 25eb ccbd
00000350: 2910 453e 6b60 153c 1b5d a63d 4f72 693e
00000360: afe2 153e 1e70 6e3d 7d9f 033e 7efc 0b3e
00000370: 2f9c e9bd c772 e6bd 3dc2 a8bd a772 19be
00000380: 9620 2e3e bf10 06be 78ff a1bd 97fb 093e
00000390: 5240 45bd 7722 d53c 32ee 18bd a82d de3d
000003a0: f1dc 40be 5b46 35be 5bb3 2f3e a93f 4bbd
000003b0: e5b9 f4bc 5e87 a03d 2782 fe3c 4d62 c93c
000003c0: 3179 953d b913 1ebe 86aa 0c3e 207c 25bd
000003d0: a2c8 dc3d 8e77 2a3e 9f4b b93d 59b3 9a3c
000003e0: 8309 3a3e b545 b8bd 7d60 2c3e 913c 9cbd
000003f0: 05ea 783d e292 5cbc 81b0 39bd 19fc 9b3d

fc2.weight f4 [128, 256]
-0.108140945 0.03365455 0.002272044 0.06869798 -0.12715153 0.07018448 0.03593761 -0.039535098
0.05158218 0.1523163 -0.03065373 -0.010330524 0.10048071 -0.07344994 -0.15906027 -0.09504502
0.0007110276 -0.007290603 0.09155527 -0.26909325 0.12440488 0.10255314 -0.11676456 0.08112037
-0.21751915 0.08838198 -0.10910379 -0.0036667236 -0.013084107 0.13987282 0.096914075 -0.013649218
0.072339 0.20896988 -0.004860409 -0.018033681 0.16804206 0.014637728 -0.31516737 -0.13698354
-0.06782341 0.17336002 -0.03872382 0.067904375 -0.030901602 0.12636025 -0.025016675 -0.4107373
-0.036047123 -0.35277352 0.09196765 0.08357775 -0.0036580474 0.034331243 -0.1552926 0.09731161
-0.010277695 -0.11082957 0.1630821 0.001480515 0.04599053 0.018277943 -0.059624214 0.030979283
-0.035338152 -0.078054935 -0.26138055 -0.21180932 -0.08626226 -0.13344039 0.15341288 0.15975513
0.11699718 -0.10580429 0.0015391045 0.28344584 0.046120536 -0.078659855 -0.06333065 0.06003495
0.057574593 -0.061756916 0.1432924 -0.049402203 -0.045414522 -0.13064893 -0.14699095 0.062358428
0.056248732 -0.12750733 -0.04832718 -0.033193193 0.028696287 0.029414412 -0.03955535 0.048453033
-0.072516784 0.14677233 0.11203768 0.14257784 -0.0052272216 0.11452718 0.080297336 0.019115333
-0.07027099 0.008451895 -0.037193403 0.13244909 0.000115720984 0.17160958 -0.06338898 -0.022443283
0.1472485 0.06560164 0.09693112 0.05556479 -0.011371738 0.1011972 -0.017907562 0.00021982775
-0.070052594 -0.042243738 -0.06126846 0.116840295 0.26302508 -0.042729348 -0.026380323 0.03289009
-0.018642107 0.16718581 -0.062008765 -0.02222485 -0.018129906 -0.15015177 -0.048814878 0.20891713
0.14123818 0.12561081 0.22235407 -0.052209973 -0.102856904 -0.0013569728 0.07165376 -0.04161005
0.10120404 -0.051247757 0.028835231 -0.04442329 -0.18273452 0.020126874 0.0794703 -0.20623668
0.0023325826 0.03274428 -0.17311561 0.17327096 -0.037980773 -0.15464793 -0.008364338 0.090203375
0.025594248 0.18124801 -0.09087408 0.117277645 -0.05993627 -0.037842162 -0.15730181 0.07639639
-0.59079736 -0.031114297 -0.00012612327 0.017591266 -0.05432389 -0.09274233 0.032790355 -0.10208337
0.04791212 0.087825656 -0.10495206 -0.04320075 -0.047055658 0.049444873 -0.12747787 -0.06724281
0.064103074 0.113260925 -0.042818934 0.1405861 -0.2382638 0.03295561 0.18803693 0.04044633
0.11267808 -0.051806252 0.19232327 -0.017684566 -0.17493811 0.08421285 0.20902672 -0.05305009
-0.15473607 -0.24483046 0.10692266 0.0709554 0.014184023 0.081548326 -0.14623514 -0.013809032
0.044744056 0.023773374 0.18186618 0.06640392 0.04260015 -0.014411334 0.1531881 0.067816064
0.049409922 0.17310143 -0.06495487 0.065127105 -0.38633686 -0.0104616 0.015364344 0.041440427
0.07606616 -0.11738919 -0.1688872 -0.004055918 0.011944779 -0.022480875 0.13324653 0.13394028
0.15154189 0.12062379 -0.10361126 0.059676133 -0.010627649 0.22290793 -0.12289915 0.13112837
0.022372691 0.3675185 0.03887678 0.0074786483 0.07035912 -0.002136546 0.12740237 -0.0026539918
-0.04712681 0.031073695 0.14020434 0.07038367 0.04237758 0.012977668 0.17879489 -0.116571695
00000000: 0079 ddbd 5ad9 093d 93e6 143b 87b1 8c3d
00000010: 0334 02be e1bc 8f3d 5133 133d 8eef 21bd
00000020: d647 533d cef8 1b3e 881d fbbc 5c41 29bc
00000030: d5c8 cd3d ec6c 96bd b2e0 22be f7a6 c2bd
00000040: 4164 3a3a 03e6 eebb 5481 bb3d 97c6 89be
00000050: fcc7 fe3d 6107 d23d 4222 efbd 7022 a63d
00000060: 57bd 5ebe 9d01 b53d cf71 dfbd 6a4d 70bb
00000070: b95e 56bc d23a 0f3e e37a c63d f8a0 5fbc
00000080: 7826 943d 33fc 553e 1144 9fbb 5fbb 93bc
00000090: 3813 2c3e 15d3 6f3c 9e5d a1be 6a45 0cbe
000000a0: 00e7 8abd 4a85 313e de9c 1ebd 7311 8b3d
000000b0: 5b25 fdbc 9564 013e c5ef ccbc 294c d2be
000000c0: 26a6 13bd bb9e b4be 8959 bc3d d02a ab3d
000000d0: dabb 6fbb eb9e 0c3d 0605 1fbe 4f4b c73d
000000e0: c763 28bc 9dfa e2bd fefe 263e d70d c23a
000000f0: 9160 3c3d a0bb 953c 8538 74bd 44c8 fd3c
00000100: bdbe 10bd 44db 9fbd acd3 85be 8be4 58be
00000110: 45aa b0bd 99a4 08be 4418 1d3e d996 233e
00000120: 389c ef3d ebaf d8bd c7bb c93a d01f 913e
00000130: e3e8 3c3d 6b18 a1bd 80b3 81bd 35e7 753d
00000140: 56d3 6b3d d2f4 7cbd 3ebb 123e f759 4abd
00000150: 9404 3abd d5c8 05be cc84 16be 8d6b 7f3d
00000160: 1265 663d 4891 02be b9f2 45bd 96f5 07bd
00000170: 7a14 eb3c 7ef6 f03c ca04 22bd b076 463d
00000180: ae83 94bd 7c4b 163e 0374 e53d edff 113e
00000190: 1d49 abbb 3a8d ea3d ee72 a43d c297 9c3c
000001a0: 3dea 8fbd d179 0a3c 1c58 18bd bca0 073e
000001b0: 3baf f238 6cba 2f3e 15d2 81bd fada b7bc
000001c0: 50c8 163e 275a 863d d383 c63d e897 633d
000001d0: 8750 3abc 7a40 cf3d e1b2 92bc 9081 6639
000001e0: bc77 8fbd c507 2dbd a3f4 7abd f749 ef3d
000001f0: 39ab 863e f804 2fbd 8c1b d8bc c2b7 063d
00000200: 55b7 98bc c232 2b3e e7fc 7dbd e310 b6bc
00000210: 2b85 94bc 63c1 19be 1cf2 47bd 5fee 553e
00000220: bea0 103e 1fa0 003e c9b0 633e 20da 55bd
00000230: a4a6 d2bd 74dc b1ba 35bf 923d 4d6f 2abd
00000240: 1044 cf3d 2be9 51bd dd37 ec3c 32f5 35bd
00000250: c21e 3bbe 1de1 a43c 53c1 a23d b52f 53be
00000260: 3ede 183b de1e 063d 3845 31be f16d 313e
00000270: ba91 1bbd 075c 1ebe 940a 09bc 8cbc b83d
00000280: 07ab d13c 1499 393e 311c babd 432f f03d
00000290: bc7f 75bd 6200 1bbd ba13 21be b675 9c3d
000002a0: 7f3e 17bf 69e3 febc f53f 04b9 8f1b 903c
000002b0: ba82 5ebd b1ef bdbd 2e4f 063d 1611 d1bd
000002c0: 803f 443d f0dd b33d 1bf1 d6bd 45f3 30bd
000002d0: 6fbd 40bd b586 4a3d 8f89 02be 99b6 89bd
000002e0: 7948 833d 58f5 e73d e862 2fbd cdf5 0f3e
000002f0: 6dfb 73be 76fc 063d c18c 403e 0dab 253d
00000300: c4c3 e63d cb32 54bd 64f0 443e 39df 90bc
00000310: fa22 33be c977 ac3d 1a0b 563e 0d4b 59bd
00000320: 2273 1ebe d6b4 7abe 44fa da3d 1151 913d
00000330: 1b64 683c cf02 a73d aabe 15be 473f 62bc
00000340: 8b45 373d 61c0 c23c 213b 3a3e c7fe 873d
00000350: 7f7d 2e3d 841d 6cbc 57dd 1c3e 26e3 8a3d
00000360: 0f62 4a3d 8041 313e 0f07 85bd 5c61 853d
00000370: f2cd c5be 2167 2bbc bbba 7b3c 70bd 293d
00000380: 93c8 9b3d be69 f0bd c4f0 2cbe 82e7 84bb
00000390: 09b4 433c d029 b8bc c771 083e a427 093e
000003a0: cc2d 1b3e 9b09 f73d 2432 d4bd f66e 743d
000003b0: 971f 2ebc fa41 643e 8db2 fbbd 8446 063e
000003c0: ef46 b73c 632b bc3e 423d 1f3d 730f f53b
000003d0: 7118 903d 4b05 0cbb c475 023e 98ee 2dbb
000003e0: 0b08 41bd 438e fe3c ba91 0f3e 5025 903d
000003f0: 1d94 2d3d 49a0 543c 0216 373e 24bd eebd

fc2.bias f4 [128]
0.08096814 0.018266661 -0.06501825 0.0379368 -0.057612766 0.05243933 -0.013314891 -0.009074346
-0.0048366156 -0.05472251 0.043015793 -0.03454875 -0.012304088 -0.0045686886 -0.011350884 0.09938768
0.031753104 0.06427816 -0.0020421704 0.07935605 -0.02752317 0.024402762 -0.055059254 0.036474288
0.0035491858 -0.048593685 -0.065500304 0.04635544 0.013756028 0.05049368 -0.064735495 -0.023782277
-0.046646442 -0.12674876 -0.0099340305 0.018593749 -0.020839913 0.045254566 0.03404503 -0.0043617007
0.0225502 -0.03512643 -0.052461006 -0.02007692 -0.05996992 0.09948026 0.040630862 -0.04683978
-0.039089613 0.020795481 0.007911088 0.0061506475 -0.021137303 0.04679785 -0.054333087 0.0430428
0.061906576 0.01840172 0.018210026 -0.13577041 -0.023495207 0.07410945 0.009556125 0.12697385
-0.0030397542 0.043728463 -0.02055396 -0.042833008 0.0020014888 0.0011292422 -0.035436478 0.059584398
0.015293214 0.0667225 -0.011623873 0.035929665 -0.043189727 0.08718798 0.046044998 3.3266646e-05
-0.06828846 0.0142705375 0.07606592 -0.028000126 -0.03930525 -0.02877121 0.04418912 0.11882239
0.059116412 0.019866472 0.08080627 0.042671535 0.06738343 -0.0300238 0.02834891 0.05849562
-0.01681301 0.06937352 0.013050295 -0.037808504 0.001841576 -0.024614377 0.028376196 -0.01481455
0.042380456 0.031884737 -0.006809026 0.048222896 0.06911286 -0.014474788 0.034070995 -0.004671455
-0.022741238 0.00038595035 0.101473674 -0.017995415 0.051657926 0.027166933 0.13448223 0.055570602
-0.06573145 0.0011463366 -0.04403649 0.06580006 -0.012623966 0.016425723 -0.09221751 -0.03750806
00000000: a0d2 a53d f7a3 953c 4a28 85bd 9e63 1b3d
00000010: 5dfb 6bbd 9fca 563d b326 5abc 91ac 14bc
00000020: 797c 9ebb b624 60bd 5431 303d fd82 0dbd
00000030: 1697 49bc f0b4 95bb 0ff9 39bc c58b cb3d
00000040: 8b0f 023d 45a4 833d efd5 05bb 6d85 a23d
00000050: 4578 e1bc 4de8 c73c d085 61bd 1066 153d
00000060: 7599 683b 2c0a 47bd 0625 86bd 34df 3d3d
00000070: f760 613c 76d2 4e3d 0b94 84bd 0dd3 c2bc
00000080: 5710 3fbd 6dca 01be 58c2 22bc eb51 983c
00000090: 77b8 aabc da5c 393d cd72 0b3d 99ec 8ebb
000000a0: 32bb b83c bbe0 0fbd 5ae1 56bd 5a78 a4bc
000000b0: 05a3 75bd 4ebc cb3d 8c6c 263d 12db 3fbd
000000c0: 6e1c 20bd 495b aa3c 829d 013c 5f8b c93b
000000d0: 2328 adbc 1aaf 3f3d 5f8c 5ebd a64d 303d
000000e0: c091 7d3d 34bf 963c 312d 953c 6607 0bbe
000000f0: 0579 c0bc b2c6 973d 4b91 1c3c 6f05 023e
00000100: 9d36 47bb 9e1c 333d c760 a8bc aa71 2fbd
00000110: 692b 033b 1503 943a d725 11bd c50e 743d
00000120: 6390 7a3c cea5 883d 0f72 3ebc fc2a 133d
00000130: b6e7 30bd 9d8f b23d ae99 3c3d ca87 0b38
00000140: d2da 8bbd f9ce 693c 73c8 9b3d 8560 e5bc
00000150: 8bfe 20bd 9ab1 ebbc a7ff 343d 2759 f33d
00000160: 0d24 723d 03bf a23c c27d a53d 59c8 2e3d
00000170: 5300 8a3d 79f4 f5bc f93b e83c 1a99 6f3d
00000180: 70bb 89bc b413 8e3d e8d0 553c 17dd 1abd
00000190: 0961 f13a 17a4 c9bc 3275 e83c bab8 72bc
000001a0: 2197 2d3d 9299 023d 401e dfbb 5f85 453d
000001b0: 0b8b 8d3d a927 6dbc 078e 0b3d 0113 99bb
000001c0: d54b babc 6159 ca39 6ed1 cf3d 1f6b 93bc
000001d0: 4397 533d 308d de3c b6b5 093e 009e 633d
000001e0: 369e 86bd ac40 963a 9b5f 34bd 2fc2 863d
000001f0: c0d4 4ebc 3d8f 863c 89dc bcbd 0da2 19bd

fc3.weight f4 [4, 128]
-0.15854284 0.07843703 -0.8498484 -0.004231905 -0.2670443 0.089301676 0.1449134 -0.49201316
-0.061152916 -0.26837596 0.17860143 0.109771095 0.54378986 -0.21228649 0.2872476 0.12677526
0.6352763 -0.24583809 -0.015310671 -0.13871558 0.3442027 0.471009 -0.36280364 -0.039467562
0.08411851 0.35748714 -0.21056774 0.43594167 0.17248514 -0.50267744 0.10459055 0.3295237
0.092714556 0.8038906 0.28860974 0.18785138 -0.21237817 -0.8559287 0.015489117 0.07234361
0.26394582 -0.52873707 -0.49534494 -0.18000135 0.18189675 -0.29002374 0.007121964 0.10025006
0.7009572 0.25082368 0.04171165 0.019177029 0.23594536 -0.026464045 0.23401572 0.12978746
-0.8882293 -0.23346011 -0.3657145 -0.44033837 -0.06194941 0.9110473 0.2560493 0.10149637
0.27804655 0.37623715 0.14414077 -0.28981975 -0.4214662 0.09600668 0.5259668 -0.25623748
0.26558772 -0.22240126 0.90004987 0.08061516 0.4022693 0.047909927 -0.33352265 -0.6915701
0.33850977 -0.09236832 0.5395929 -0.35534 0.24401078 0.32287297 0.07099549 -0.23665063
0.08769002 -0.45363313 0.3152643 0.28652823 0.31223077 -0.62299955 0.17887782 -0.24607645
-0.27496815 0.023658885 0.123216115 0.50579613 -0.33032605 -0.3437924 -0.35037374 -0.54479796
-0.35104272 -0.40197378 -0.0154755125 0.37608957 0.30512556 0.16955541 0.10846576 0.17591934
0.09070087 -1.6422875 0.08023681 -0.1512307 -0.58933294 -0.29530492 -0.09486095 -0.33406803
0.009921691 -0.40836707 -0.2493786 -0.020701012 -0.04431271 -0.48459056 1.2776941 0.010752002
-0.2638103 -0.015980542 0.21409485 0.07417447 0.5480352 -0.023276374 -0.15882075 -0.40291145
0.36953044 -0.18673821 0.10306455 -0.15552798 -1.29858 0.60818976 0.10498487 -0.0034393794
-0.14030086 -0.37901768 -0.39076298 -0.44992876 -0.4415058 -0.25820482 0.13396165 -0.37154615
-0.06283947 0.19403121 0.27230018 0.29263937 -0.013691407 0.26894483 0.068283014 -0.09436219
0.33570397 0.038294025 0.11950253 -0.11771556 0.2159644 -0.03349199 0.02756988 0.47457135
0.66334337 0.2372475 -0.14236268 0.36405033 -0.06834258 -0.18734464 0.021521024 0.066197805
0.1765766 0.10602295 -0.040190246 -0.13519865 -0.0844628 0.03504982 -0.80484295 -0.23768981
-0.061467055 0.34160364 0.25389105 -0.13862732 -0.10434651 -0.10197537 0.07814243 -0.15052572
-0.19606493 -0.022904467 -0.37222943 0.36717513 -0.034839 0.33636603 -0.06469769 -0.037195254
0.1684689 0.0036139227 -0.2829675 -0.04335011 0.025416069 -0.14424591 -0.43120682 -0.12269345
0.35697618 0.008056722 -0.21126078 -0.034142774 0.079031184 0.110176645 -0.22121465 0.08286659
0.008317974 -0.2237005 -0.04254771 0.095103286 0.18238711 -0.2265917 -0.26466143 0.3418627
0.20010641 -0.38830674 0.015943294 -0.5582422 -0.08611427 0.5332682 0.70086783 0.6462314
-0.0076845833 0.25289756 -0.1616003 0.15877327 -0.037333682 -0.03825466 -0.70513827 0.7914889
-1.0414592 -0.34881592 -0.57004964 -0.40629598 -0.37707704 -0.102903575 -0.46901745 -0.6560476
-0.11635625 -0.08293919 -0.16413857 -0.2182129 -0.051835284 0.17877135 0.24752921 0.38710335
00000000: 0e59 22be 98a3 a03d aa8f 59bf cbab 8abb
00000010: 08ba 88be cce3 b63d 2e64 143e 26e9 fbbe
00000020: 7b7b 7abd 9368 89be 4be3 363e abcf e03d
00000030: d035 0b3f a161 59be 1e12 933e 60d1 013e
00000040: 78a1 223f fbbc 7bbe 9cd9 7abc 750b 0ebe
00000050: 563b b03e 1728 f13e 66c1 b9be bda8 21bd
00000060: 5346 ac3d 8e08 b73e 129f 57be bf33 df3e
00000070: f29f 303e 78af 00bf 9233 d63d 55b7 a83e
00000080: 21e1 bd3d c6cb 4d3f a8c4 933e 1d5c 403e
00000090: aa79 59be 251e 5bbf 11c6 7d3c e328 943d
000000a0: e823 873e 505b 07bf da9d fdbe 4652 38be
000000b0: 2443 3a3e fe7d 94be 5d5f e93b e74f cd3d
000000c0: ee71 333f f66b 803e d6d9 2a3d 2519 9d3c
000000d0: a99b 713e 20cb d8bc d1a1 6f3e 01e7 043e
000000e0: ff62 63bf 2b10 6fbe ee3e bbbe 0874 e1be
000000f0: aabe 7dbd 653a 693f e518 833e 54dd cf3d
00000100: 1e5c 8e3e 28a2 c03e a399 133e 4163 94be
00000110: 6bca d7be 269f c43d c3a5 063f 8f31 83be
00000120: 1dfb 873e 28bd 63be ab69 663f 9019 a53d
00000130: 3ef6 cd3e 333d 443d 7bc3 aabe bd0a 31bf
00000140: 2751 ad3e 9a2b bdbd c322 0a3f 20ef b5be
00000150: f6dd 793e 9b4f a53e 1566 913d 8b54 72be
00000160: d396 b33d 9a42 e8be 536a a13e d4b3 923e
00000170: b6dc 9f3e e67c 1fbf bf2b 373e 77fb 7bbe
00000180: a0c8 8cbe 47d0 c13c bb58 fc3d db7b 013f
00000190: 7f20 a9be 8f05 b0be 3064 b3be e177 0bbf
000001a0: dfbb b3be 82cf cdbe 018d 7dbc d08e c03e
000001b0: 6b39 9c3e ef9f 2d3e 4c23 de3d 3324 343e
000001c0: 61c1 b93d 7a36 d2bf 3253 a43d 38dc 1abe
000001d0: 86de 16bf 3532 97be 7546 c2bd f70a abbe
000001e0: 978e 223c 7d15 d1be 1b5d 7fbe 2b95 a9bc
000001f0: 3f81 35bd 411c f8be 7b8b a33f 2a29 303c
00000200: 2512 87be a0e9 82bc ae3b 5b3e c9e8 973d
00000210: 094c 0c3f 18ae bebc e8a1 22be 694a cebe
00000220: 1833 bd3e 4d38 3fbe 8213 d33d ba42 1fbe
00000230: df37 a6bf 53b2 1b3f 4f02 d73d 3667 61bb
00000240: 07ab 0fbe 9b0e c2be 1612 c8be 105d e6be
00000250: 0c0d e2be 6c33 84be 3e2d 093e 4c3b bebe
00000260: fbb1 80bd 1eb0 463e ee6a 8b3e d4d4 953e
00000270: ec51 60bc 23b3 893e f7d7 8b3d f740 c1bd
00000280: 64e1 ab3e 32da 1c3d bebd f43d db14 f1bd
00000290: c625 5d3e e62e 09bd 3bda e13c 04fb f23e
000002a0: dfd0 293f 02f1 723e 86c7 11be ce64 ba3e
000002b0: 32f7 8bbd 46d7 3fbe dc4c b03c b792 873d
000002c0: 7fd0 343e 8f22 d93d 879e 24bd 8471 0abe
000002d0: d5fa acbd 6690 0f3d 300a 4ebf f564 73be
000002e0: e1c4 7bbd ace6 ae3e 02fe 813e 52f4 0dbe
000002f0: 9fb3 d5bd 76d8 d0bd 2309 a03d 6a23 1abe
00000300: 3fc5 48be 26a2 bbbc db94 bebe 61fe bb3e
00000310: 57b3 0ebd 2b38 ac3e 3980 84bd 0d5a 18bd
00000320: 1c83 2c3e 90d7 6c3b 1ee1 90be e38f 31bd
00000330: 5c35 d03c 33b5 13be 24c7 dcbe b446 fbbd
00000340: 95c5 b63e 5700 043c bf54 58be 4bd9 0bbd
00000350: 1adb a13d 4ba4 e13d 1886 62be f5b5 a93d
00000360: 1d48 083c be11 65be 8246 2ebd 83c5 c23d
00000370: b0c3 3a3e a807 68be b481 87be a108 af3e
00000380: b2e8 4c3e 24d0 c6be 839b 823c f6e8 0ebf
00000390: ae5c b0bd 4484 083f 136c 333f 6c6f 253f
000003a0: f5ce fbbb ca7b 813e 8d7a 25be 7695 223e
000003b0: 34eb 18bd ebb0 1cbd f183 34bf 049f 4a3f
000003c0: 894e 85bf 0098 b2be c6ee 11bf 0706 d0be
000003d0: 3e10 c1be 1cbf d2bd 0e23 f0be bcf2 27bf
000003e0: 304c eebd 06dc a9bd f113 28be 3473 5fbe
000003f0: 3c51 54bd d60f 373e 4c78 7d3e 6932 c63e

fc3.bias f4 [4]
0.06814198 -0.08258897 0.047160644 -0.04872651
00000000: 068e 8b3d 6824 a9bd 852b 413d 7395 47bd
